PyTorch-Audio/1_Training_NN_PyTorch/feedforwardnet.pth (torch, 815711 bytes, 4 tensors)

dense_layers.0.weight f4 [256, 784]
0	0xbc0c66b2	-0.008569406
1	0xbc8d6cae	-0.017263737
2	0xbd0e7450	-0.034778893
3	0xbc81493a	-0.015781987
4	0x3c12b1b4	0.008953501
5	0xbc889e93	-0.016677177
6	0xbb1c51b0	-0.00238524
7	0x3cf6cf9e	0.030128296
8	0xbb4badf0	-0.0031079017
9	0xbc9443d7	-0.018098755
10	0x3c6afa38	0.014341883
11	0x3bb28170	0.005447559
12	0x3d3e2577	0.046422448
13	0x3995d38f	0.00028577118
14	0xbcf36d99	-0.029715346
15	0x3b56232c	0.0032674773
16	0x3c1d3bfc	0.009596821
17	0xbce9d8e1	-0.028545799
18	0x3be2a150	0.0069162026
19	0x3bbf0dd0	0.005830504
20	0xbc0a37c0	-0.008436143
21	0xbcd79368	-0.026315406
22	0x3d00de87	0.03146222
23	0x3cc2059e	0.02368432
24	0xbb88de90	-0.004176922
25	0x3cb67692	0.022273336
26	0xbd0d5147	-0.03450134
27	0xbcd044ac	-0.02542337
28	0x3b83ad88	0.0040184893
29	0xbc8fc81a	-0.01755147
30	0x3cb728a8	0.022358254
31	0xbcf75161	-0.030190172
32	0x3cba22c2	0.022721652
33	0xba8b21db	-0.0010614948
34	0xbc75ba28	-0.014997996
35	0x3d13e03e	0.036102526
36	0x3d2ca063	0.042145144
37	0x3c175544	0.0092366375
38	0x3d7fcee4	0.062453166
39	0xbd0cfa05	-0.034418125
40	0x3cc56a76	0.024098616
41	0xbcdd4b7e	-0.027013537
42	0x3dadb418	0.08481616
43	0x3e0e0094	0.13867408
44	0x3ccaab87	0.024739994
45	0x3bd1033d	0.00637856
46	0x3d9fb24f	0.077976815
47	0x3e1905b0	0.14943576
48	0x3e1e9f7b	0.15490524
49	0x3df6fbb6	0.12059729
50	0x3ddde4ff	0.10834693
51	0x3dbf74fc	0.09348485
52	0x3d088b91	0.033336226
53	0x3c0f9e20	0.008765727
54	0xbc942d3c	-0.018087976
55	0x3c78bdfc	0.015182015
56	0x3cad9916	0.021191161
57	0x3cacf352	0.021112118
58	0xbd0b22b7	-0.033968654
59	0xbdf51e00	-0.11968613
60	0xbda5eb1c	-0.08101484
61	0xbcb7a3b4	-0.022416927
62	0x3d62660c	0.0552731
63	0x3d749009	0.059707675
64	0xbd61e022	-0.05514539
65	0xbcde9274	-0.027169444
66	0x3ded9780	0.11601162
67	0x3cc7a1d7	0.024369163
68	0xbd04f549	-0.032460485
69	0x3dc30312	0.0952207
70	0x3d22db68	0.039760023
71	0x3e0fd1f5	0.14044936
72	0x3e353b93	0.17698507
73	0x3e0ac4a6	0.13551578
74	0xbd3a515e	-0.045487754
75	0xbd28a1ce	-0.041169934
76	0x3d92dae6	0.07170658
77	0x3da27d2d	0.07934032
78	0x3d9a9032	0.07547034
79	0x3db4322e	0.087986335
80	0xbd648625	-0.055791993
81	0xbdc241e1	-0.09485222
82	0x3cdf6f8e	0.027274873
83	0xbcc059a3	-0.023480242
84	0x3c5bf6f8	0.013425581
85	0xbb4deaf0	-0.0031420551
86	0x3e14a8ae	0.14517471
87	0xbcaaa8f1	-0.02083251
88	0x3db007b4	0.08595219
89	0x3deeb1eb	0.11655029
90	0x3dacf3ce	0.084449396
91	0x3e2f2e9a	0.17107621
92	0xbd93862a	-0.07203324
93	0x3c7227f1	0.014780031
94	0x3d53a268	0.051668555
95	0x3ce58b72	0.028020594
96	0x3d6f9cc8	0.058499128
97	0x3bb450cd	0.0055027963
98	0xbcd1cb50	-0.025609642
99	0x3b4413fb	0.0029919136
100	0xbcc8c245	-0.024506697
101	0x3d134a71	0.035959665
102	0x3cc2af6d	0.02376529
103	0x3ce0fd48	0.027464524
104	0xbcc731d1	-0.024315747
105	0xbc60ff95	-0.0137328105
106	0x3c85ca06	0.016331684
107	0x3d225678	0.039633244
108	0xbcc23980	-0.023709059
109	0xbe16e310	-0.14735055
110	0xbe128486	-0.14308366
111	0x3ce5c726	0.028049063
112	0x3d0e3197	0.03471526
113	0x3cd7f502	0.026361946
114	0x3e0ac3b4	0.13551217
115	0x3db7dcb9	0.089776464
116	0x3d944d54	0.07241312
117	0x3d1aa338	0.037753314
118	0x3d8fef82	0.07028104
119	0x3dfcf120	0.123506784
120	0x3e1f29f2	0.15543345
121	0x3e10c34d	0.14137001
122	0x3cc0d60f	0.023539571
123	0x3c98c8c1	0.018650414
124	0x3d2fd9b4	0.042932227
125	0x3d13202b	0.03591935
126	0x3d5d662e	0.054052524
127	0x3d1259fb	0.035730343
128	0x3d0f7036	0.035019122
129	0x3d35c248	0.044374734
130	0x3c94e91e	0.018177565
131	0x3c96ce16	0.018408816
132	0x3d8a69d5	0.06758467
133	0xbb6ca8ec	-0.0036111427
134	0xbdc431b6	-0.09579794
135	0xbda8b64d	-0.08237896
136	0xbd1c4213	-0.03814895
137	0xbbcfcf8a	-0.0063418793
138	0x3d8abb7f	0.06774043
139	0x3cce4594	0.025179662
140	0x3cf70a92	0.030156408
141	0x3cca0ce0	0.024664342
142	0x3d0374c7	0.03209379
143	0x3df18e3a	0.11794706
144	0x3db7d08d	0.08975325
145	0x3d14c6ac	0.03632228
146	0x3c9232f1	0.017846556
147	0x3da6725c	0.08127281
148	0x3cb02e63	0.021506494
149	0xbc516879	-0.012781256
150	0xbddd8427	-0.10816222
151	0xbbd59c76	-0.0065188957
152	0x3cfd3acd	0.030911827
153	0x3befac4c	0.0073142406
154	0x3d2373f2	0.039905496
155	0x3c66d70e	0.014089359
156	0xbd02cdd8	-0.03193459
157	0xbc76f894	-0.015073914
158	0xbce68f3c	-0.028144471
159	0x3c385d70	0.011252746
160	0x3c0db135	0.0086482065
161	0x3da6f101	0.081514366
162	0xbd5bc94f	-0.05365878
163	0xbd634c9e	-0.05549299
164	0xbd31debe	-0.043425314
165	0x3dad9b3c	0.08476874
166	0x3de62a93	0.11238589
167	0x3d72aa77	0.0592446
168	0x3c52d2b4	0.012867618
169	0xbb8a1d90	-0.00421495
170	0x3cffacd8	0.031210348
171	0x3dc57141	0.09640742
172	0x3c71d3a3	0.014759931
173	0xbdb520ed	-0.08844171
174	0x3cc1e5ea	0.023669202
175	0x3bb63875	0.0055609294
176	0x3c754bf8	0.014971726
177	0xbc3e69ed	-0.011621934
178	0xbd9ac9a4	-0.07557991
179	0x3cf3d858	0.029766247
180	0xbcdcdada	-0.026959825
181	0x3d1b72ee	0.037951402
182	0x3d4ba484	0.04971744
183	0x3d2667c0	0.040626287
184	0x3c089bb2	0.008337902
185	0x3d0cc5c3	0.034368288
186	0x3d3a6d45	0.045514364
187	0xbaa74019	-0.0012760191
188	0x3d2b9144	0.041886583
189	0x3d869f7d	0.06573389
190	0xba1f72aa	-0.0006082455
191	0x3d3be49b	0.045872312
192	0xbc91a705	-0.017779836
193	0x3dc77282	0.097386375
194	0x3cb24776	0.02176259
195	0x3daeb914	0.085313946
196	0x3b9b23fc	0.0047345143
197	0xbd4f689c	-0.050636873
198	0xbd8ea40e	-0.06964885
199	0x3ba09626	0.0049007116
200	0xbd0214ea	-0.031758226
201	0xbd002d8f	-0.031293448
202	0xbcf68615	-0.030093232
203	0xbda7adbd	-0.08187435
204	0xbd94e9f9	-0.07271189
205	0xbdb9d698	-0.09074134
206	0xbd751747	-0.059836652
207	0xbddba8e6	-0.10725574
208	0xbcdfe74d	-0.027331972
209	0xbd3537d2	-0.044242688
210	0xbc9171d4	-0.017754473
211	0x3c159b30	0.009131238
212	0x3d91aff4	0.071136385
213	0xbc512ba6	-0.012766754
214	0xbb4b681b	-0.0031037393
215	0xbc42df7b	-0.011894102
216	0x3caeb695	0.021327296
217	0x3d5fc7af	0.054633792
218	0xbcc8bc3d	-0.024503822
219	0x3db10486	0.08643441
220	0x3d168e0b	0.036756556
221	0xbcba4930	-0.022739977
222	0xbd43e92f	-0.047829803
223	0x3d4be653	0.0497802
224	0xbe04ee90	-0.1298163
225	0x3d46c469	0.048527155
226	0xbd979860	-0.0740211
227	0x3cb1f2be	0.021722194
228	0x3d458803	0.048225414
229	0xbab909d7	-0.0014117312
230	0x3cff8f44	0.031196244
231	0x3cf7cbe9	0.0302486
232	0xbdb94d2f	-0.09047925
233	0xbd3e1b7e	-0.046412937
234	0xbcde8b81	-0.02716613
235	0x3d16b15b	0.036790233
236	0x3bd44cdf	0.0064788903
237	0x3cfd1452	0.030893479
238	0x3cceed83	0.025259739
239	0xbca901cf	-0.020630745
240	0x3d10e265	0.035372157
241	0x3cc344ec	0.023836575
242	0xbb30dea3	-0.002698817
243	0x3d3b49d5	0.04572471
244	0xbd50e2e7	-0.05099764
245	0x3ce178a6	0.02752335
246	0x3c828c5d	0.015936071
247	0x3cd16753	0.025561964
248	0x3b8454ac	0.004038414
249	0xbde1cab9	-0.110249944
250	0x3d931037	0.07180827
251	0x3d46d1e8	0.048540026
252	0x3c982bd7	0.018575592
253	0xbdc5ec68	-0.096642315
254	0xbe042e73	-0.12908344
255	0x3c346001	0.011009217

dense_layers.0.bias f4 [256]
0	0xbbfe6cec	-0.0077644493
1	0xbd909cf8	-0.070611894
2	0x3da13512	0.078714505
3	0x3d78c251	0.06073219
4	0x3ca9bfb5	0.020721296
5	0x3d865622	0.06559397
6	0x3d16b910	0.036797583
7	0xbd9b7b6f	-0.075919025
8	0xbc37f6f2	-0.01122831
9	0xbcf25cdb	-0.029585293
10	0x3e3b67a1	0.1830125
11	0x3d296848	0.041359216
12	0x3db132fc	0.086523026
13	0x3db248ff	0.08705329
14	0xbcaea4fa	-0.021318901
15	0xbd8f9a7e	-0.07011889
16	0x3c416cb0	0.011805698
17	0xbd8ba3ef	-0.06818377
18	0xbd2caf5d	-0.042159427
19	0xbda2ffb2	-0.07958926
20	0x3cc17aac	0.023618065
21	0x3d534413	0.051578593
22	0x3de3cc5d	0.111229636
23	0x3d22112a	0.03956715
24	0xbd34032a	-0.04394833
25	0xbd364294	-0.044497088
26	0xbd5c7fe6	-0.05383291
27	0xbd47e8cd	-0.048806
28	0xbad6cc21	-0.001638774
29	0x3c189fd5	0.009315451
30	0xbd0d5898	-0.034508318
31	0x3c00a419	0.007851624
32	0x3ce06528	0.027391985
33	0x3bbed07c	0.005823193
34	0x3d25d9ed	0.040491033
35	0x3dcf2c65	0.101158895
36	0x3cf1dae3	0.029523319
37	0xbb9dfb08	-0.004821185
38	0x3ca1d807	0.01975633
39	0xbdb432ac	-0.087987274
40	0x3d16723d	0.03673004
41	0xbc759bed	-0.014990789
42	0xbe0e3a0e	-0.13889334
43	0x3d6240e3	0.055237662
44	0x3dd66240	0.104679585
45	0xbd9886a3	-0.07447555
46	0x3ceef0c1	0.029167535
47	0xbc320a97	-0.010866783
48	0x3dea5b09	0.11443145
49	0x3dae2db6	0.085048124
50	0xbcc849de	-0.024449285
51	0x3ce927f3	0.028461432
52	0x3e02e693	0.1278327
53	0xbc8ce961	-0.017201127
54	0xbdc11dba	-0.09429498
55	0x3b9425cb	0.004521107
56	0x3e074404	0.1320954
57	0xbc84921d	-0.016182953
58	0xbd5860a5	-0.052826542
59	0xbccd1c21	-0.025037827
60	0x3d862d5d	0.06551621
61	0xbcebf63f	-0.028803943
62	0xbd71057e	-0.05884313
63	0x3b38d970	0.0028205775
64	0x3d060dd0	0.032728016
65	0x3d8a028b	0.06738766
66	0x3e0c189d	0.13681264
67	0xbd57d17c	-0.052690014
68	0x3d6e4ac8	0.058176786
69	0x3db4b866	0.08824234
70	0x3bb639aa	0.0055610733
71	0x3d97ae47	0.07406288
72	0x3dd089e5	0.10182551
73	0xbd85fe83	-0.06542685
74	0xbce02379	-0.027360665
75	0xbc1f43ee	-0.009720786
76	0x3d4c4b6d	0.04987662
77	0x3c7b9abd	0.015356717
78	0x3d7fec61	0.062481288
79	0x3d16af16	0.03678807
80	0x3e6c2073	0.23059253
81	0xbd88ec8f	-0.06685745
82	0xbdf0fead	-0.117673256
83	0xbd6e2b12	-0.058146544
84	0x3c390a7a	0.011294002
85	0x3cadb95e	0.021206554
86	0x3d92eda2	0.07174231
87	0x3b89868c	0.0041969474
88	0xbd2085b3	-0.039190006
89	0x3cfd94bf	0.030954717
90	0xbccf96c7	-0.02534045
91	0x3c5e6726	0.013574397
92	0x3dbc4b7a	0.091940835
93	0x3d3265cc	0.043554112
94	0xbd2fad7a	-0.04289005
95	0x3d84d905	0.06486706
96	0x3dd53235	0.10409967
97	0x3e024220	0.12720537
98	0x3db42239	0.0879559
99	0x3df24b06	0.11830716
100	0xb71f1d2b	-9.48393e-06
101	0xbcbe71cb	-0.02324762
102	0x3d4abe79	0.049498055
103	0xbd570e39	-0.0525038
104	0xbc91f93a	-0.017819036
105	0xbcc0c1f8	-0.023529992
106	0xbd489df7	-0.048978772
107	0x3ddccc73	0.10781183
108	0xbda05406	-0.07828526
109	0xbc74ddd4	-0.014945466
110	0x3d605988	0.054772884
111	0x3dd86642	0.10566379
112	0xbc9e5023	-0.019325322
113	0x3da7cf88	0.0819388
114	0x3e13676f	0.14394926
115	0x3e0e163d	0.1387567
116	0xbc7d669d	-0.015466359
117	0xbd640392	-0.055667467
118	0xbd2d55e9	-0.04231826
119	0x3b65cd9c	0.003506518
120	0xbd3bd8ee	-0.045861177
121	0x3d8baea2	0.06820418
122	0x3e68fbda	0.22752324
123	0x3d23d2f3	0.0399961
124	0x3dd1c4a9	0.10242588
125	0x3deba2bc	0.115056485
126	0xbe08243c	-0.13295072
127	0xbc423fcd	-0.011856032
128	0xbd3a6a43	-0.045511495
129	0x3d22dae2	0.039759524
130	0x3d84dfd9	0.06488008
131	0x3d216564	0.039403334
132	0x3c268f84	0.010166053
133	0x3dcc0071	0.09961022
134	0xbd7a88e2	-0.061165698
135	0xbc281488	-0.010258801
136	0xbd236010	-0.039886534
137	0xbd13ee36	-0.036115848
138	0x3da56ae5	0.08077029
139	0x3d028a59	0.03187022
140	0x3d9b6922	0.07588412
141	0xbc1aea2b	-0.009455244
142	0xbc54eebc	-0.012996372
143	0x3d10cb51	0.035350148
144	0x3dfc58ad	0.12321601
145	0xbb4e667b	-0.0031494189
146	0x3dfe044b	0.124031626
147	0x3d33d48e	0.04390388
148	0x3e63223e	0.22181031
149	0xbc9d92d2	-0.019235048
150	0xbc581f89	-0.013191112
151	0x3cbc2e44	0.02297128
152	0x3d298855	0.041389782
153	0xbd99edaa	-0.07516034
154	0x3cc2030a	0.02368309
155	0x3e0248c8	0.12723076
156	0xbb06488f	-0.0020490026
157	0x3e673813	0.22579984
158	0x3d08ec2e	0.033428364
159	0x3dd11d65	0.10210685
160	0x3b377fb6	0.0027999706
161	0x3e208243	0.15674691
162	0x3ac0f084	0.0014720117
163	0xbd20e666	-0.039282225
164	0x3df0cd32	0.11757888
165	0xbd792dc7	-0.060834672
166	0x3d8b673e	0.06806801
167	0x3d1c4ea7	0.038160946
168	0xbbffafd6	-0.0078029437
169	0xbd72652d	-0.05917852
170	0x3d354eca	0.044264592
171	0x3cd5f249	0.026116507
172	0xbd61de3e	-0.055143587
173	0xbd5ad565	-0.053426165
174	0x3d36f608	0.044668227
175	0x3bafa925	0.00536074
176	0x3c0f7638	0.008756213
177	0xbc27fc9c	-0.010253098
178	0x3e57e27e	0.21082494
179	0x3cb12bc2	0.02162731
180	0x3e1ed4a5	0.15510805
181	0x3e07b156	0.13251242
182	0xbda40ae8	-0.08009893
183	0x3cefdfea	0.029281575
184	0x3c31663d	0.010827598
185	0xbdc52f55	-0.096281685
186	0x3da404be	0.08008717
187	0xbdb69b9a	-0.089163974
188	0x3d14d602	0.036336906
189	0x3aa40bca	0.001251572
190	0x3d3985c7	0.045293596
191	0xbd47c3f9	-0.04877088
192	0xbda9c00c	-0.08288583
193	0x3d980036	0.07421915
194	0xbce31043	-0.027717715
195	0xbb91a385	-0.004444542
196	0xbc9898e3	-0.01862759
197	0x3d47e87e	0.048805706
198	0x3d64f5f0	0.055898607
199	0x3d372fb9	0.044723246
200	0x3e1da840	0.15396214
201	0x3dbd2fe3	0.09237649
202	0xbd2c3ebb	-0.042052012
203	0x3b3d5edb	0.002889565
204	0xbd729e75	-0.059233148
205	0x3d09895e	0.03357827
206	0xbd4d36df	-0.050101157
207	0xbc1d3ea1	-0.009597451
208	0xbc8daeea	-0.01729532
209	0x3d57fa1a	0.05272875
210	0xbbd86ae6	-0.00660454
211	0x3d60cf67	0.054885294
212	0x3e671825	0.22567804
213	0x3e3b95ae	0.18318817
214	0xbdb02ab0	-0.08601892
215	0x3d387aa5	0.045038838
216	0x3d9ebcbd	0.07750843
217	0xbd77d9e4	-0.06051053
218	0x3d54b12e	0.051926784
219	0x3dd030c0	0.10165548
220	0xbc8c4229	-0.017121391
221	0x3dc81e07	0.09771352
222	0x3dc7e3fa	0.0976028
223	0x3dba47b8	0.090957105
224	0x3da3a1cc	0.07989845
225	0x3d474255	0.048647244
226	0x3c985bc6	0.018598448
227	0x3d18a042	0.03726221
228	0x3d10fee9	0.03539935
229	0xbd09ad2a	-0.033612408
230	0xbb86aa50	-0.0041096583
231	0x3d5bdbe4	0.0536765
232	0x3e208183	0.15674405
233	0x3d289911	0.0411616
234	0x3d8d5be0	0.069022894
235	0xbd8bae18	-0.06820315
236	0x3d7c001b	0.061523538
237	0x3bf6e708	0.0075348653
238	0xba6a3097	-0.0008933632
239	0x3d7f3c71	0.0623135
240	0x3b6b3f97	0.0035896057
241	0x3d80f3a0	0.06296468
242	0x3ce3a8f2	0.02779052
243	0x3b18c6b3	0.0023311793
244	0x3b369906	0.0027862205
245	0x3d889061	0.06668163
246	0x3d7964be	0.06088709
247	0x3df6a452	0.1204306
248	0xbd81d7a7	-0.063399605
249	0x3e48600a	0.19567886
250	0xbdaabd6c	-0.083369106
251	0xbdc5d425	-0.09659604
252	0xbd9992f4	-0.07498732
253	0x3d72c7db	0.05927263
254	0xbaf29d55	-0.0018510023
255	0xbd1344bd	-0.035954226

dense_layers.2.weight f4 [10, 256]
0	0xbe47a4c6	-0.1949645
1	0xbe865733	-0.26238403
2	0x3d518e15	0.05116089
3	0xbf17425a	-0.5908562
4	0xbdf049aa	-0.117328
5	0xbea7e69a	-0.32793123
6	0x3dd3341d	0.10312674
7	0x3dbbd28d	0.09171019
8	0x3e127839	0.14303674
9	0x3dbfd259	0.093662925
10	0xbc5e7f5f	-0.013580172
11	0xbe45507c	-0.19268984
12	0xbd5fec3a	-0.054668643
13	0xbb47bb87	-0.0030476765
14	0x3db487a3	0.08814933
15	0xbca058f6	-0.01957367
16	0x3de67ba7	0.112540536
17	0x3dc96387	0.098334365
18	0x3dd2fcd3	0.10302129
19	0xbb808ba6	-0.0039228974
20	0x3d1c5009	0.038162265
21	0xbe169be7	-0.1470791
22	0xbec2bfd3	-0.38036975
23	0xbc9420a4	-0.01808197
24	0xbe010ef3	-0.12603359
25	0xbe4eb858	-0.20187509
26	0x3cb6ea06	0.022328388
27	0xbbc7904f	-0.006090201
28	0x3e20e6bc	0.15713018
29	0x3e182568	0.1485802
30	0xbe475ad6	-0.19468245
31	0xbd8eda79	-0.06975264
32	0xbc564a01	-0.013079167
33	0x3e0c8f43	0.13726525
34	0xbe636bd5	-0.22209103
35	0x3da82e2d	0.08211932
36	0x3d0a46b0	0.03375882
37	0xbd3e3dc5	-0.046445627
38	0x3d0e7542	0.034779795
39	0xbe143066	-0.14471588
40	0x3d3f64dc	0.046727046
41	0x3de2d61e	0.11075996
42	0xbe650fb3	-0.2236927
43	0xbddf0a71	-0.108906634
44	0x3df14f47	0.11782699
45	0xbc1d3900	-0.009596109
46	0xbe94388b	-0.2894939
47	0xbdcaec55	-0.09908358
48	0xbdedddee	-0.11614595
49	0xbe3a1ee5	-0.18175848
50	0xbec359f8	-0.38154578
51	0x3da3cab1	0.07997645
52	0x3e99d70f	0.3004689
53	0x3e09cbb5	0.13456614
54	0x3d6c0e6c	0.05763094
55	0x3d1e3fae	0.03863495
56	0xbe58eecc	-0.21184844
57	0xbe305c18	-0.17222631
58	0x3de055c7	0.10953861
59	0xbef25acd	-0.473349
60	0x3b10e490	0.002210889
61	0x3e5c4036	0.2150887
62	0x3dbeb2bd	0.09311435
63	0x3e564e87	0.20928393
64	0x3d5d79d4	0.054071262
65	0xbdd088f1	-0.101823695
66	0xbd892aa0	-0.06697583
67	0xbec71bf4	-0.38888514
68	0xbdec31e0	-0.115329504
69	0x3da1882f	0.07887303
70	0xbc188684	-0.009309415
71	0x3d461937	0.04836389
72	0xbdad6150	-0.084658265
73	0xbece4b64	-0.40291893
74	0xbdb69b26	-0.08916311
75	0x3e592531	0.21205594
76	0x3de3e3b8	0.11127418
77	0x3d428372	0.047488637
78	0xbe838504	-0.2568742
79	0x3dec1590	0.1152755
80	0xbd96e64e	-0.07368146
81	0x3b8297ef	0.003985397
82	0xbdcbf0f2	-0.09958066
83	0x3e5269a9	0.20548119
84	0xbddc7bde	-0.10765813
85	0xbf00c4e8	-0.50300455
86	0x3ba0aa47	0.004903111
87	0xbe0da29d	-0.13831563
88	0xbdb6b2ca	-0.0892082
89	0x3d40840f	0.04700094
90	0xbe4ecd87	-0.2019559
91	0x3dc44e53	0.09585252
92	0x3de3a323	0.111151
93	0x3dc567b5	0.09638921
94	0x3dd79997	0.10527342
95	0x3dc6b447	0.09702354
96	0x3dbb25c4	0.091380626
97	0x3d74b317	0.059741106
98	0x3ddea546	0.10871367
99	0xbe18b204	-0.14911658
100	0x3d373008	0.04472354
101	0xbe845047	-0.25842497
102	0x3de306ca	0.11085279
103	0x3e0ad85b	0.13559096
104	0x3d5e144f	0.054218587
105	0x3da13e90	0.07873261
106	0xbe8bd5c7	-0.27311537
107	0xbe8fbf2d	-0.28075543
108	0x3d579826	0.052635334
109	0xbc58348a	-0.01319612
110	0x3c738536	0.014863303
111	0x3de0bfee	0.10974108
112	0xbd8c2139	-0.06842274
113	0xbe83ff2d	-0.2578062
114	0xbe4b4bda	-0.19853154
115	0xbe613763	-0.21993785
116	0xbe9fb9bd	-0.31196395
117	0xbdcf4eae	-0.10122429
118	0x3c0f53fe	0.008748053
119	0xbd31b329	-0.04338375
120	0x3dd77f7f	0.10522365
121	0xbf1c60e9	-0.61085373
122	0xbe247c71	-0.16063096
123	0xbd9ac2ee	-0.07556711
124	0xbcb74cf6	-0.022375565
125	0x3df624e7	0.12018757
126	0xbe526553	-0.20546465
127	0x3d74db8f	0.0597797
128	0xbbcf6e5c	-0.0063302945
129	0x3da0d783	0.078536056
130	0xbec6600a	-0.38745147
131	0xbe73c259	-0.23804606
132	0x3e0046e9	0.1252705
133	0x3d1e3b55	0.038630802
134	0xbe17dfe3	-0.148315
135	0x3dec25e1	0.11530662
136	0xba91a40c	-0.0011111512
137	0x3ccf6797	0.02531795
138	0xbdbd76f3	-0.092512034
139	0x3d974ba7	0.073874764
140	0xbe5bd2f0	-0.21467185
141	0x3db22528	0.08698493
142	0xbe439a59	-0.19101848
143	0x3d9055fe	0.07047652
144	0xbebced43	-0.36899766
145	0x3dc0c252	0.09412064
146	0x3dbf6767	0.09345894
147	0xbec9124f	-0.3927178
148	0x3e07f549	0.13277163
149	0xbcb2ece6	-0.021841478
150	0x3d306b51	0.043071095
151	0x3c9a7370	0.018853873
152	0x3bef270d	0.0072983564
153	0xbd1bd5f3	-0.038045835
154	0x3ea2ab40	0.31771278
155	0xbdc61205	-0.09671406
156	0x3de5a6c2	0.11213447
157	0xbde7abac	-0.11312041
158	0x3df46102	0.11932565
159	0x3db34abb	0.08754488
160	0xbdcf7208	-0.101291716
161	0xbd287e41	-0.04113603
162	0xbd27d4b7	-0.040974345
163	0xbe0a1de1	-0.1348796
164	0xbe25051d	-0.16115232
165	0x3dbdfa4f	0.09276258
166	0x3dfacbe1	0.12245918
167	0x3dff9029	0.12478668
168	0xbbee1694	-0.007265875
169	0x3defe376	0.117133066
170	0xbe600786	-0.2187787
171	0xbe71058d	-0.23537274
172	0x3dcbf09c	0.09958002
173	0x3df8d461	0.12149883
174	0xbd60965d	-0.054830898
175	0xbf1bd88f	-0.6087732
176	0xbd567560	-0.05235803
177	0xbc575db9	-0.013144904
178	0x3d14149b	0.036152463
179	0xbd840fbd	-0.06448314
180	0xbdefa328	-0.117010415
181	0xbec0b0d5	-0.37634912
182	0xbdc1ea7c	-0.094685525
183	0x3d867797	0.06565779
184	0x3da01aa3	0.078175806
185	0xbe30ba98	-0.1725868
186	0x3da60c5c	0.08107826
187	0xbe69a536	-0.22816929
188	0x3d80eb00	0.06294823
189	0x3dd27d5d	0.102778174
190	0x3da30b56	0.079611465
191	0x3deac759	0.11463804
192	0x3dfc27b8	0.12312263
193	0x3e0ff102	0.14056781
194	0xbd03f328	-0.032214314
195	0x3db09a15	0.08623139
196	0xbdfc077b	-0.12306114
197	0x3d565148	0.05232361
198	0x3d81d321	0.06339098
199	0xbe41a9e0	-0.18912458
200	0x3dc39575	0.09549991
201	0x3cd54b9d	0.026037032
202	0x3d9c228d	0.076237775
203	0x3d71708d	0.058945227
204	0x3dbf4166	0.09338646
205	0x3d3a9c8d	0.045559455
206	0x3e0ddd3a	0.13853922
207	0xbdc1f504	-0.09470561
208	0xbe21d2e0	-0.15803099
209	0xbe8e2148	-0.27759767
210	0xbd923b2c	-0.071401924
211	0x3df30006	0.11865239
212	0xbbb82f02	-0.005620838
213	0xbed3b7dd	-0.41351214
214	0x3d8ef301	0.06979943
215	0xbe32b8a0	-0.17453241
216	0x3d5e59e4	0.054284945
217	0xbe198e21	-0.14995624
218	0x3e02e68a	0.12783256
219	0x3e1f13b9	0.15534867
220	0x3e3354ae	0.17512771
221	0x3d44ea37	0.048074927
222	0xbd9c394a	-0.076281145
223	0xbdd9fa5d	-0.10643456
224	0xbcc7e98f	-0.024403362
225	0x3d54480c	0.05182652
226	0xbcaa7ade	-0.02081054
227	0x3e08ed73	0.1337183
228	0xbf1481aa	-0.5801035
229	0xbe1a0cf6	-0.15044007
230	0x3d8abb15	0.06773964
231	0xbe2f3a19	-0.17112006
232	0xbf167e06	-0.58786047
233	0xbecc6755	-0.39922586
234	0xbd13e702	-0.036108978
235	0xbed4bab0	-0.4154868
236	0x3d490793	0.04907949
237	0x3d971e9e	0.07378887
238	0x3da0379d	0.078231074
239	0xbea89c5c	-0.32931793
240	0x3e0cfaf5	0.13767608
241	0xbacf6df4	-0.0015825615
242	0xbda6c7b7	-0.08143561
243	0x3db4936b	0.0881718
244	0x3e10c445	0.14137371
245	0xbdc82f99	-0.097747035
246	0xbe79bacd	-0.24387665
247	0x3e76d6a9	0.24105324
248	0xbe119bca	-0.14219585
249	0xbe3c55f2	-0.1839216
250	0x3e0a5458	0.13508737
251	0x3dedd32e	0.11612545
252	0xbee684f8	-0.45023322
253	0x3bb75df5	0.0055959173
254	0x3d4f649a	0.05063305
255	0xbe87f79f	-0.26556107

dense_layers.2.bias f4 [10]
0	0xbdfa269d	-0.12214396
1	0x3d091022	0.03346265
2	0x3d22ef19	0.039778803
3	0xbcac39d3	-0.021023666
4	0x3dbe2a06	0.09285359
5	0x3bb1a4f8	0.005421277
6	0xbd8bf8c8	-0.06834561
7	0x3cca3f7e	0.024688479
8	0xbd2fe0a3	-0.04293884
9	0xba980b6c	-0.0011600084
